RecoHGCal/TICL/data/tf_models/PairWiseMLP.16.4.16.51e-CloseByGamma200PUFull.10.0.2.100f.onnx (onnx, 5410 bytes, 9 tensors)

0.running_mean f4 [43]
00000000: 694e b83e e56d cb3f 0cc8 a943 8456 9c43
00000010: 0fa5 9b43 8632 5042 fd42 5b3e a2b4 9c3d
00000020: 3c1b ca3a a0b0 9c3b 32d7 7c3f f649 e040
00000030: f76c 5f3f 216b 6b3f 1a98 a43e d5dd b73f
00000040: aeb7 ab43 df57 9440 3016 8940 ad78 1c42
00000050: bd7a d43f 4b5e ed3e 72e4 213c 2683 d639
00000060: 9e47 773f fb12 a640 8432 b73f 5271 973f
00000070: fd00 eebc f7c6 ac3f b16f a143 c658 913e
00000080: bd2f e13f 54f8 bb43 b678 ca3c 5fb8 a93f
00000090: 97ae a743 e6e6 9b3e 0c4e b93f aee9 b043
000000a0: ed0e d640 751e 3042 03b8 8241
0.35997322 1.5892912 339.56287 312.6759 311.28952 52.04934 0.21412273 0.076516405
0.0015419493 0.0047817975 0.9876586 7.0090284 0.8727564 0.9196034 0.32147294 1.4364573
343.435 4.6357265 4.2839584 39.117847 1.6599957 0.46361002 0.009881126 0.00040914974
0.96593654 5.189817 1.4312291 1.1831458 -0.029053206 1.3498219 322.8726 0.2838804
1.7592694 375.94006 0.024715763 1.325939 335.36398 0.304496 1.4476943 353.82562
6.689322 44.029743 16.33985

0.running_var f4 [43]
00000000: 5607 b644 5a89 b644 e924 5e41 4d87 c046
00000010: ae25 bf46 9667 3743 66d3 c83d a400 403c
00000020: 5c5d 443c 2154 493c 7b6d b338 a624 5d3f
00000030: 95f2 ba3e 9171 bc3e 0c9b b544 a581 b644
00000040: 192b 9043 0aac a941 8e13 ad41 2294 3c45
00000050: 96c2 2f40 22d7 ae3e 7455 083d 2cd7 ee3c
00000060: a853 8a3b aaeb 1941 1cdb 2a3f 8c5a 263f
00000070: 0326 a544 ed70 a544 c2f8 1241 499e dc44
00000080: e574 dc44 04d2 7943 c141 ae44 dbb6 ae44
00000090: 9341 6243 bf53 c144 6c12 c144 37e6 be43
000000a0: 1b44 8740 c875 7b43 dd55 4043
1456.2292 1460.2922 13.884011 24643.65 24466.84 183.40463 0.09805946 0.011718903
0.011985149 0.012288124 8.5557775e-05 0.86384046 0.365132 0.36805394 1452.8452 1460.0514
288.3367 21.209003 21.634548 3017.2583 2.7462516 0.34148508 0.03328462 0.029155336
0.0042213984 9.620035 0.66740584 0.64981914 1321.1879 1323.5289 9.185732 1764.9464
1763.653 249.82037 1394.0548 1397.7142 226.25615 1546.6171 1544.5757 381.79855
4.2270637 251.46008 192.3354

1.weight f4 [16, 43]
00000000: ef73 ebbc 905e 8337 ddfd 113e e695 0ebf
00000010: 5e63 e5be 17f5 6fbd 87a7 213e f90d 2d3d
00000020: 9217 8cbb 6ed5 20be 60fc 833d de5e 5f3e
00000030: 8da2 e9bd 9f5c 51bd af52 57bd b28d 473d
00000040: 84d0 04bd 61b8 16bc da4d 06be d368 3f3a
00000050: 5485 573e 2631 adbc 1bcd a33d d6d9 5abd
00000060: c88b 6e3e f4d1 f23c d484 a6bd 878e a4bd
00000070: 615c 57bd aefa d1bc 55fc 27be 66ed ea3d
00000080: 540a 7b3d f0db b0bd dca5 febd a988 013d
00000090: fa8d a1bd 3306 cc3d cc81 ef3d 0216 a7bb
000000a0: d9ce 963e ff31 01be 47b6 eebd 508a d4bc
000000b0: 686d 1dbc 3ba7 443e 416f 3e3e 514f 96bc
000000c0: 0ab5 433e 5eb0 a43d cf20 083d 985b a2bd
000000d0: 894c 4e3d 8cbc bdbd a931 d73d 35c5 37be
000000e0: 5eb7 f43d 39ad 06bd c9b6 f63d 48c8 77bf
000000f0: 39fd 2abe 1831 403c a46b 093e 9b3c 5f3d
00000100: f4e5 38be 791c e43b ffa4 d3bc a286 803d
00000110: 3330 383e 0149 433e 8de9 31be c32a 943d
00000120: 3fed 213c 7361 8fbd 0aca 853d afe8 92bd
00000130: a955 18bd 11f0 533d a63b 01ba 8cca cebe
00000140: ede1 b3bd dc88 56bd faec 1ebd 6345 103b
00000150: 8691 33be ddde 0fbc d709 67be 11a8 0f3e
00000160: 4e3b b73d 82a8 7f3b 3d50 20be 104e 823e
00000170: 9b04 6cbe 9c27 39bd 1cbb 0fbc 60b7 d5bc
00000180: 9ea1 0fbd 4649 d7bc 6fec 113d bc90 673e
00000190: db73 f1bd 7b0c 77bc e4f7 7c3d 1868 2abf
000001a0: 2e48 a2be 3764 bfbd da86 823c cac5 023e
000001b0: b7ce 773d f075 69bd 5807 c03d 77bc 12bb
000001c0: 4d14 823d a190 5abd 9b60 da3c d906 dabd
000001d0: dc69 4a3c ced7 843d 3afa c23d e450 c83c
000001e0: eff1 8fbe 17b3 ce3d 78f7 463b a40f 47be
000001f0: 14f3 2f3e edc6 8c3d b6d6 d53d 3fd0 4d3d
00000200: 7e72 273e 8077 c53d e1ae 53be b485 9b3d
00000210: 1549 6ebb 709a 1c3c a4b5 0cbe 0a19 9bbd
00000220: aefa c2bd a72f 01be bf50 2f3e aee7 2fbe
00000230: 1255 833d 3687 3bbd 1703 ba3d b4f1 b6bc
00000240: c91e 09be 3bef ba3c bc9c 1dbf 4e9c 44be
00000250: fa31 5fbe aab4 c33c 642a 203e c605 84bd
00000260: 6943 a63c 24af 16bd 64ad 303d 5cd0 d13d
00000270: bb8a a83d 33ac f2bb 30e7 7abc 864f fabc
00000280: bbf1 22be e58f 59be 741c f03c 30a3 fb3d
00000290: 2c8f 69bd 2785 09bd ae6a a43d e4b6 1bbe
000002a0: 4205 563e 6821 a4be 4734 3c3e 43ce 213e
000002b0: 94a2 383c f940 053d 592a 9d3e 925a 35be
000002c0: f0e5 f2bd f391 243e a56b d6bb 861f 71bd
000002d0: 3c29 e23c 1d74 3d3e 0c6a 1cbe 26b1 633d
000002e0: 873c 043e 680b e73d b3c0 01be b06e f63d
000002f0: 2ae3 0abf 228e 193e 2ad4 f3bd 8389 a1bd
00000300: 2ba2 46be 4c65 e83d 8ecf 79bd 284e babb
00000310: 80df bb3d e25b 83be e50a 713d 281c 963c
00000320: d309 dbbd d3b3 64bc cabc 533d 6271 d7bd
00000330: 080e 79bd 7b34 4a3c 6315 a7bc af4c f43d
00000340: f6ec 82bd ff86 4c3d c053 07be beaa 163e
00000350: 07d0 2b3f 01c0 d8bd 5248 233e 7c15 673d
00000360: a57a 93bd d82d 95be e382 913b 3f7e 14be
00000370: af12 1a3c dd72 263d 294c 3c3e 29bd 243d
00000380: af2e 89be 533f 7c3d 01ec 12bd ae39 363e
00000390: d792 09bc 6fe4 44bc 032f 1e3e ce31 143f
000003a0: 8fa7 b53e d2ce f1bd ab06 abbb 55a7 a43c
000003b0: ea6d 5b3d 072e 93bb 659c 0b3d 49a5 e33d
000003c0: 8206 423e 9507 243e 1be6 2f3d 06c8 9cbc
000003d0: 7b36 8e3d d41e 8cbe 548d 1a3d fb49 52bd
000003e0: 8819 833a 4193 2fbd d63e 113e a262 4f3e
000003f0: a805 44bd e0c6 d7bd d023 c4bd e214 883e
-0.028741805 1.5660451e-05 0.14256997 -0.55697477 -0.44802374 -0.058583345 0.15786563 0.042249653
-0.0042752707 -0.15706417 0.06444621 0.21813533 -0.11407957 -0.05111372 -0.052569088 0.048719116
-0.03242542 -0.009199233 -0.13115636 0.0007301692 0.21046954 -0.0211416 0.07998105 -0.0534304
0.2329551 0.02964113 -0.08130804 -0.080349974 -0.052578334 -0.025632229 -0.16404851 0.114710614
0.061289147 -0.086357 -0.12433979 0.03162447 -0.07888408 0.0996212 0.11694679 -0.005099059
0.29454687 -0.12616728 -0.116558604 -0.025944859 -0.009608604 0.19204418 0.18597127 -0.018348368
0.1911203 0.08041452 0.033234414 -0.07927626 0.05036596 -0.09264478 0.10507519 -0.17946322
0.11949037 -0.03288004 0.12046582 -0.9678998 -0.1669816 0.011730455 0.13419968 0.054501157
-0.1805647 0.006961402 -0.025835512 0.06275679 0.17987137 0.19070818 -0.17374249 0.07234719
0.009883224 -0.07001009 0.065326765 -0.07173287 -0.037191067 0.051742617 -0.0004929848 -0.40388906
-0.08783326 -0.052376613 -0.038800217 0.0022014014 -0.17535982 -0.008781162 -0.22562347 0.14028956
0.08946858 0.003901035 -0.15655608 0.25450182 -0.23048632 -0.04520379 -0.008772638 -0.026088417
-0.03506624 -0.026280057 0.03562587 0.22613806 -0.11789676 -0.015078659 0.061759844 -0.66565084
-0.31695694 -0.09345286 0.015933443 0.12770763 0.060499873 -0.05699724 0.09376401 -0.0022390166
0.06351528 -0.053360585 0.026657393 -0.10645837 0.01235434 0.06486474 0.09520383 0.024452634
-0.28114268 0.100927524 0.0030359905 -0.1943956 0.1718257 0.068738796 0.104413435 0.050247427
0.16352269 0.096419334 -0.2067218 0.07593861 -0.0036359478 0.009558305 -0.13741165 -0.07573135
-0.095204696 -0.12615834 0.17120646 -0.17178223 0.0641271 -0.045783244 0.090826206 -0.02233205
-0.1339065 0.022819152 -0.6156728 -0.1920025 -0.21796408 0.023889858 0.1564117 -0.06446414
0.020295816 -0.03678812 0.04313411 0.102448195 0.08229586 -0.0074057817 -0.015313908 -0.030555498
-0.15912525 -0.21246298 0.029310443 0.12286985 -0.057021305 -0.03357425 0.0802816 -0.15206486
0.20900443 -0.32056737 0.18379317 0.15801339 0.01126923 0.032532666 0.3069637 -0.17710331
-0.11860263 0.160713 -0.006543594 -0.058867954 0.027607553 0.18501325 -0.15274829 0.055588864
0.12913714 0.112814724 -0.12671165 0.12032831 -0.54252875 0.14995626 -0.119057015 -0.078875564
-0.193978 0.11347446 -0.060988955 -0.0056855865 0.091734886 -0.2565604 0.05884828 0.018323973
-0.10695233 -0.013958889 0.051693715 -0.10519673 -0.060804397 0.012341614 -0.02039594 0.11928689
-0.06392853 0.04993343 -0.13215542 0.1471357 0.671143 -0.10583497 0.15945557 0.056416973
-0.07201127 -0.29136539 0.0044406517 -0.14501284 0.009403869 0.040636886 0.18388428 0.04021946
-0.2679343 0.06158383 -0.035869602 0.1779544 -0.008396826 -0.012017353 0.15447621 0.57888496
0.354794 -0.11807026 -0.0052193007 0.020099321 0.05357162 -0.004491571 0.034084696 0.1111551
0.18947795 0.16018517 0.042944055 -0.019138347 0.06943985 -0.2736727 0.037732437 -0.051340085
0.0010002116 -0.04286504 0.14184126 0.20252469 -0.047856957 -0.10535979 -0.09577143 0.26578432

1.bias f4 [16]
00000000: 4ad4 643e f732 0f3e 5168 5dbe b2e4 003e
00000010: 55d1 9d3e 918b 263e 6bf1 b03e 5c75 38bd
00000020: 2f31 c03d be08 4c3e f000 d1bd 2235 373e
00000030: 3d6b 503e 205d ea3e 93d1 233e cb46 483d
0.22346607 0.13984285 -0.21621825 0.1258724 0.3082377 0.16264178 0.34559187 -0.045033798
0.09384381 0.1992521 -0.10205257 0.17891362 0.20353408 0.45774174 0.15997915 0.04889564

3.weight f4 [4, 16]
00000000: c1c1 19bf fc48 a9be 7638 10be 2cf3 dcbe
00000010: 315f c53d b8a7 923c 5613 c83d 3324 093e
00000020: af58 e4be 4cc9 00be d36e 9a3e 5069 e23e
00000030: 1ca1 ecbc 8797 82bd ffcf d7be 7730 0c3e
00000040: f97b 1f3e de22 e73e d283 4abe faa6 e9bd
00000050: 4825 ebbd 1a6d c53e b7a1 ed3e 090e a0bd
00000060: ca85 873e 56a4 6cbd ca04 943e dc56 ec3d
00000070: bc71 26bc 4e2f d63e 8643 fc3c 5cd1 693d
00000080: 5f9e a53e bb72 36bd a652 e5bd d886 45be
00000090: c88c c13e 398c 683e 2f92 823e a1e1 a93e
000000a0: 2881 d33e bece 95bd 4a74 b63e 246e 04be
000000b0: 7505 d5bd c063 6c3e b4c8 a03e 6e9b a63e
000000c0: 2621 553d 7fe7 0bbe 3a82 483e a031 923e
000000d0: 77d0 46be efac bb3c ee15 4dbe c045 53be
000000e0: 3597 573e 58bf a63e 1349 8dbe e839 d33e
000000f0: 9246 9b3e 3c08 a2bd 6ac6 8b3e 7ec9 25be
-0.6006127 -0.33063495 -0.14084038 -0.43154275 0.09637297 0.01790224 0.09769313 0.13392715
-0.4459891 -0.12576789 0.30162677 0.44220972 -0.028885417 -0.06376558 -0.42150876 0.13690363
0.15574636 0.4514379 -0.19776848 -0.114088014 -0.1148172 0.385598 0.4641244 -0.07815177
0.2646926 -0.05777391 0.28909904 0.115400046 -0.010158952 0.41832966 0.030793916 0.057084426
0.3234739 -0.04454301 -0.111974046 -0.1928972 0.3780272 0.2270974 0.25502154 0.33179954
0.41309476 -0.073148236 0.35635597 -0.1293264 -0.104014315 0.23084927 0.31403124 0.32540458
0.052033566 -0.13662528 0.19580927 0.28553486 -0.1941546 0.02290961 -0.20027897 -0.20632076
0.21053775 0.3256786 -0.27594814 0.41255116 0.30327278 -0.07911727 0.27299815 -0.16190144

3.bias f4 [4]
00000000: e0dc a5be 485b a23d c70d 283e 6f0e 343d
-0.32395077 0.07927567 0.16411506 0.043959077

5.weight f4 [16, 4]
00000000: b319 0fbf b0ae be3e 3d98 de3e 0d46 b73d
00000010: 8d9b 9cbd 9373 943e 322c 103f c874 cf3d
00000020: d162 1a3f d29c a63d 07fc f2be ab6e 413f
00000030: f93f 2fbe c1ab 093c 24ff 6b3e 7e85 22bf
00000040: eb76 793f 6f65 3cbe 3e13 9abc d534 593e
00000050: 7415 d7be c9b0 b7be 30a4 713c 6f5e 4f3e
00000060: 9feb 643e 0566 a2bd cd92 3c3d eca1 4c3e
00000070: af40 fabe 7265 143e d93e b7be 214c 86bd
00000080: fb25 20bc a688 febd 5bb7 6d3e 17dd 7fbd
00000090: a2ac 49bf d0e3 143f 7174 133f f9e2 223e
000000a0: 5000 18bf 33df 9a3e 5705 b93e b500 0fbe
000000b0: 8fdf 0cbf a522 7d3e cedb e53e 3267 9ebc
000000c0: d653 303f b65b 5cbe 0887 f1bd 6c0f a03e
000000d0: d4a7 04bf ed81 1a3f 1933 013f 787d d3be
000000e0: dc66 693f 44de 1dbf f066 9dbe 9799 243f
000000f0: 8821 eb3d b8f4 753e 5b21 b4be 56e3 7dbe
-0.5589859 0.3724265 0.43475524 0.08948908 -0.076468565 0.28994426 0.56317437 0.10129696
0.6030703 0.0813538 -0.47457907 0.7555949 -0.17114247 0.008402766 0.23046547 -0.6348494
0.9744708 -0.18398069 -0.018808004 0.2121156 -0.42008555 -0.35877064 0.014748618 0.20250867
0.22355507 -0.07929615 0.046038438 0.19983643 -0.48877475 0.14491823 -0.35790136 -0.06557489
-0.00977468 -0.12428407 0.23214476 -0.062466707 -0.7877904 0.58160114 0.5759955 0.15906896
-0.59375477 0.30248412 0.36136886 -0.13965113 -0.55028623 0.24720247 0.4489426 -0.019336317
0.68877923 -0.2151936 -0.11793333 0.31261766 -0.51818585 0.603545 0.50468594 -0.41306663
0.91172576 -0.61667275 -0.30742598 0.6429686 0.11481005 0.24019134 -0.35181698 -0.24793753

5.bias f4 [16]
00000000: 92e7 f8bd 7c15 813d 64e7 9a3e 80c8 dbbd
00000010: d12f 4ebe 071e 4a3e 491b 973e 3613 213e
00000020: 4925 8abe ac04 0dbd 4e80 833e 2461 d33c
00000030: 0d76 0ebd d797 babd b574 44be 484c 8dbe
-0.121535435 0.06302926 0.30254662 -0.10731602 -0.20135428 0.19738017 0.29513004 0.15729985
-0.2698157 -0.034428284 0.25683826 0.025803156 -0.03478055 -0.091109924 -0.19185145 -0.2759726

7.weight f4 [1, 16]
00000000: f87c 9cbe 61f4 1bbe 4fd9 2b3f e80a 97be
00000010: b41c 0c3f 1297 3a3e 0030 883c c486 96bb
00000020: ab48 5ebe 98fc b4be d04b 6cbe 5243 c4bd
00000030: 4ceb f93e 4d21 29be 0ea9 f13e 4753 323e
-0.30564094 -0.15229942 0.6712846 -0.29500508 0.547313 0.18221691 0.01662445 -0.004593702
-0.21707408 -0.35348964 -0.23075795 -0.09583153 0.4881233 -0.1651661 0.4719929 0.1741458
